runs_resnet50/model.onnx (onnx, 396508 bytes, 30 tensors)

bn1.weight f4 [64]
000000 e0 2b c0 3f a2 7b 19 40 fe ea 1a 40 41 c1 07 40
       1.501339 2.398171 2.4205928 2.1211703
000010 1a 7e 93 40 e1 96 05 40 f5 83 cf 3f ec 13 0c 40
       4.6091433 2.087334 1.6212145 2.188716
000020 86 88 30 40 9e db 05 40 f3 39 e2 3f c5 a2 06 40
       2.7583327 2.0915294 1.7673935 2.1036847
000030 c7 9b da 40 50 9a 29 40 19 0d f9 3f 9c 2a 13 40
       6.831516 2.6500435 1.9457122 2.2994757
000040 b0 83 e2 3f 07 74 11 40 2a c3 d6 3f 73 91 f0 40
       1.7696438 2.2727067 1.6778309 7.517755
000050 30 1e 15 40 cf 54 dd 3f 37 0e 19 40 49 51 0f 40
       2.3299675 1.7291507 2.3914926 2.2393363
000060 cb d3 bf 40 ac 96 0f 40 1d 6e 20 40 e2 be 0e 40
       5.9946036 2.2435713 2.5067208 2.2304006
000070 68 24 c4 3f f5 c8 16 41 c8 95 dd 3f 04 21 02 40
       1.532361 9.424062 1.7311335 2.033265
000080 1a ec c8 40 08 f4 0f 40 fa 4f 17 40 59 4d 0a 40
       6.278821 2.2492695 2.3642564 2.160971
000090 c0 5e e0 3f bb 60 04 40 95 0c de 3f df f8 e5 40
       1.7528915 2.068404 1.734759 7.18663
0000a0 a2 30 10 40 40 a6 96 40 94 62 e6 3f 38 fd da 3f
       2.2529683 4.707794 1.7998834 1.7108526
0000b0 f8 1b ee 3f 5d d1 d7 3f 64 64 e0 3f 3a 80 e7 3f
       1.8602285 1.6860768 1.7530637 1.8086007
0000c0 b5 b8 c1 3f 68 b5 01 40 d1 25 be 3f 7a 75 bf 3f
       1.5134493 2.0266972 1.4855291 1.4957726
0000d0 5d a7 8e 40 cf ae c9 3f d4 9d 2b 40 72 93 f7 3f
       4.45793 1.5756472 2.681508 1.9341872
0000e0 f5 36 09 40 45 52 1e 40 ac dd 25 40 b2 41 1e 40
       2.1439793 2.4737713 2.5916548 2.4727597
0000f0 eb 12 d3 3f 85 97 15 40 74 51 bb 3f c3 69 dd 3f
       1.6490148 2.337373 1.4634233 1.7297901

bn1.bias f4 [64]
000000 bf 9a 45 40 8f 10 0f 40 40 ce 83 40 63 49 ba 3f
       3.08757 2.2353857 4.118927 1.4553646
000010 39 f1 90 c0 9e ad 26 40 e0 06 2e 40 a0 ac 1c 40
       -4.529446 2.6043468 2.7191696 2.4480362
000020 12 e8 98 3f 70 b6 02 40 bd e1 2d 40 fe c1 cd 40
       1.1945822 2.042385 2.716903 6.4299307
000030 e5 c7 d0 c0 89 79 90 3f 2f 5f 22 40 59 9f ad 40
       -6.524401 1.128709 2.5370595 5.4257016
000040 92 42 98 40 7a f2 20 41 63 e2 3a 40 0a fc 6d 41
       4.7581263 10.059198 2.9200675 14.874033
000050 2a 29 23 40 93 82 2b 40 e2 90 15 40 6f f7 07 40
       2.5493875 2.6798446 2.336968 2.1244771
000060 e8 b4 0b c1 60 e6 07 40 ca 2b 87 40 7e a2 dc 3f
       -8.731667 2.123436 4.2240953 1.7237089
000070 53 7a 4c 40 72 1e bd 41 c4 c7 12 40 0d d7 27 40
       3.194966 23.639866 2.2934427 2.6225007
000080 b7 66 1d c1 e1 dd e5 3f d8 55 25 40 2e fa 28 40
       -9.837577 1.7958337 2.5833645 2.6402698
000090 77 2b 26 40 99 24 13 40 ea b4 2c 40 48 15 80 41
       2.596403 2.2991087 2.698542 16.010391
0000a0 6a 44 f0 3f dc 4b 4b c0 8e cc 2b 40 57 92 39 40
       1.8770878 -3.176505 2.68436 2.8995569
0000b0 33 fc 2b 40 2b e4 2c 40 55 9b 17 40 2c a6 23 40
       2.687268 2.7014263 2.3688557 2.5570173
0000c0 7a 85 4a 40 c5 eb 2e 40 50 ff 38 40 e8 ac 3d 40
       3.1643968 2.7331402 2.890583 2.9636784
0000d0 99 71 8c c0 ca 83 28 40 8c ba aa 3f c0 8c 0e 40
       -4.388867 2.6330438 1.333818 2.2273407
0000e0 cf 17 0d 40 fa 1f 81 40 bf 2f 9f 40 11 1a 2c 40
       2.2045782 4.0351534 4.9745784 2.689091
0000f0 6a 04 2a 40 43 83 f6 3f bd 26 39 40 4a 07 2f 40
       2.6565194 1.9258808 2.8929894 2.73482

layer1.0.bn1.weight f4 [64]
000000 b4 86 42 40 0a d5 57 40 01 7c d6 3f bf 43 52 40
       3.0394716 3.3723779 1.6756593 3.285385
000010 a8 d9 ca 3f 5f 46 93 3f 6d 54 3c 40 33 fb 2a 40
       1.5847673 1.150585 2.942653 2.671582
000020 0b 36 b4 3f c5 28 a9 3f b3 4f 28 40 eb 02 01 40
       1.4078993 1.3215567 2.6298645 2.015803
000030 91 84 93 3f 90 ca 7c 40 39 b5 92 3f 40 47 b6 3f
       1.1524831 3.9498634 1.1461555 1.4240494
000040 03 b1 be 3f 02 23 4e 40 cd d3 44 40 da 12 64 40
       1.489777 3.2208867 3.0754273 3.5636506
000050 fa 4f 99 3f e2 43 29 40 57 27 9d 3f 43 7f 16 40
       1.1977532 2.6447682 1.227763 2.3515174
000060 b2 5d 90 3f 1c 67 f1 3f e2 9f 5a 40 43 6c a1 3f
       1.1278594 1.8859591 3.4160085 1.2611164
000070 ea b0 5b 40 0e 83 8c 40 22 24 76 40 7e 2e 28 40
       3.432673 4.390998 3.8459554 2.6278377
000080 95 4e 6f 40 cd fb b3 40 03 43 4b 40 3e e3 2c 40
       3.7391713 5.6244874 3.175965 2.7013698
000090 d3 2a 4e 40 90 71 47 40 81 3a ca 3f a8 8e 4b 40
       3.2213638 3.1163063 1.5799104 3.180582
0000a0 27 ad e8 3f 38 3f e6 3f e7 72 bb 3f 53 c3 a2 40
       1.8177842 1.7988043 1.464444 5.0863433
0000b0 ce 3b c6 3f 57 46 86 3f 31 2c 6e 40 91 3e 26 40
       1.5487001 1.0490216 3.7214472 2.5975688
0000c0 fa 8e 51 40 1f 34 cb 3f b2 19 c5 3f 9c 28 77 3f
       3.2743516 1.5875281 1.5398467 0.9654634
0000d0 5f 07 9d 40 88 7c b7 3f c4 cd 20 40 1a ef a0 40
       4.90715 1.4334879 2.512559 5.029187
0000e0 72 ee 9d 3f f9 64 f2 3f ed f4 b7 3f 8a c3 b7 3f
       1.2338393 1.8937064 1.437162 1.4356549
0000f0 e0 89 0e 40 11 b8 13 40 00 38 bb 3f 0a 69 79 40
       2.2271652 2.3081095 1.4626465 3.897036

layer1.0.bn1.bias f4 [64]
000000 b3 84 23 bf 6e 7f ca bf 20 0d 94 bf d5 20 69 bf
       -0.6387436 -1.5820138 -1.1566505 -0.9106572
000010 28 3a 1b bf b7 60 43 3f 6d 49 81 bf 84 84 c7 be
       -0.60635614 0.7631945 -1.0100533 -0.3896829
000020 d2 5d 9d 3f c6 e1 85 3f ce 4d 4f be c1 07 31 3f
       1.2294257 1.0459526 -0.20244524 0.69152457
000030 95 e4 ad 3f 81 ca 18 c0 5c 00 b7 3f 01 b3 d1 3f
       1.3585383 -2.3873599 1.4296985 1.6382753
000040 96 d5 be 3e 9b 93 84 bf 86 a9 57 bf d0 db 0a c0
       0.37272328 -1.0357546 -0.8424305 -2.1696663
000050 e3 a8 96 3f 89 f9 a7 3e 4b ab 85 3f ce 4f 25 3f
       1.177029 0.32807568 1.04429 0.645749
000060 ce a7 f5 3f 81 8f 4e 40 8c 21 b5 bf fd 28 fa 3f
       1.9191835 3.2275088 -1.4150863 1.9543759
000070 08 cc 04 bf 7a b6 86 c0 77 29 fa 40 c7 a0 85 bf
       -0.51873827 -4.209775 7.8175616 -1.043969
000080 96 93 fa bf 91 d6 ec c0 d8 0f b7 be 89 c2 e8 bc
       -1.957629 -7.401192 -0.35754275 -0.028413074
000090 36 4b 1d bf bf 0e c9 bf 54 3a 04 3f 8a e6 1f c0
       -0.6144289 -1.5707625 0.516515 -2.498446
0000a0 e3 a1 30 3e 56 f9 dc bf a1 19 ae 3f 3b 03 38 c0
       0.17249255 -1.7263591 1.3601571 -2.8751972
0000b0 b7 4f b1 3f 7f 17 8b 3f 94 12 cf bf 34 78 3e be
       1.3852452 1.0866545 -1.6177545 -0.18600541
0000c0 e1 82 e8 40 c3 3e 81 3e 56 45 21 3f d4 db a9 3f
       7.2659764 0.25243196 0.62996423 1.3270211
0000d0 01 c3 29 c0 4d 5a eb 3f cd 7e 0f c0 82 af ad c0
       -2.652527 1.8386933 -2.2421143 -5.4276743
0000e0 fa 68 4d 3f 8f f7 ee 3e 93 f8 b6 3f fe e1 b0 3f
       0.80238307 0.46673247 1.4294609 1.3818967
0000f0 a5 b1 60 40 88 b4 99 bf 57 e4 ad 3f 19 4b c2 bf
       3.5108426 -1.2008219 1.3585309 -1.5179168

layer1.0.bn2.weight f4 [64]
000000 3a 28 9d 3f 9e 36 86 40 58 b9 93 40 30 54 cf 3f
       1.2277901 4.194167 4.616375 1.6197567
000010 5a 8e 38 3f b6 05 65 3f 9b 38 c1 3f d7 bf f4 3f
       0.7209221 0.8946184 1.50954 1.9121045
000020 6f 17 a0 40 ee fd 7f 40 f6 b6 a3 3f 14 60 11 40
       5.0028605 3.9998736 1.279021 2.2714891
000030 86 ba 4d 3f 5d 34 1d 40 05 54 51 3f 50 a9 cf 3f
       0.8036274 2.456321 0.8176883 1.6223545
000040 5b f7 e5 3f b2 00 0f 40 61 95 82 3f 5d 44 6a 3f
       1.7966112 2.2344174 1.0201837 0.91510564
000050 80 79 42 3f 8e fb 7c 3f 3e 7e 88 3f a4 18 8e 3f
       0.75966644 0.9882134 1.0663526 1.110127
000060 22 f9 d4 3f 29 3d bd 3f f6 d5 f3 3f fe a8 90 3f
       1.6638529 1.478429 1.9049671 1.1301572
000070 22 44 c2 3f c5 df 2f 3f 4e f2 be 3f 6d 5a 36 40
       1.5177042 0.6870082 1.4917696 2.8492692
000080 52 52 8a 3f 65 5f 17 40 9e 21 36 3f 0a eb c4 3f
       1.0806372 2.3651974 0.71145046 1.5384228
000090 53 9e f4 3f f6 6a 36 3f 35 e5 44 3f 00 ee 6e 3f
       1.9110817 0.7125696 0.7691224 0.9333191
0000a0 bc ff 45 40 a6 d5 61 40 a7 ef 86 40 fc 19 9d 3f
       3.0937338 3.528665 4.2167544 1.2273555
0000b0 e2 11 af 3f 27 73 8b 3f c1 57 9e 3f c1 0b 70 3f
       1.3677332 1.0894517 1.237053 0.93767935
0000c0 b3 fa c4 3f 2e 27 52 3f f8 54 33 3f 63 e6 93 3f
       1.5389007 0.82091033 0.7005153 1.1554683
0000d0 e9 82 33 3f e1 ee 18 40 5d b5 3a 3f 94 cb e0 3f
       0.7012163 2.38958 0.7293299 1.7562127
0000e0 cb 66 b9 3f 1d 47 ba 3f 76 eb c4 3f f1 1e 3f 3f
       1.4484495 1.4552952 1.5384357 0.7465659
0000f0 27 70 5a 3f b2 ec 8e 3f 45 ad 95 3f 9c b1 97 3f
       0.8532738 1.1165984 1.1693503 1.1851077

layer1.0.bn2.bias f4 [64]
000000 c7 71 09 bf 65 3f 11 c1 53 8d 26 41 e3 47 dd 3e
       -0.53689235 -9.077977 10.409503 0.43218908
000010 a4 78 fb 3f d2 54 b9 3f 27 aa 03 c0 68 04 b8 bf
       1.9646192 1.447901 -2.0572603 -1.4376345
000020 3e c7 3a 41 82 a4 2c 41 55 96 9c 3f 1c 6a 78 c0
       11.673643 10.790163 1.2233378 -3.8814764
000030 94 a2 51 40 40 d5 a7 40 38 01 19 40 3f 23 3a bf
       3.275548 5.2447815 2.3906994 -0.7271003
000040 71 92 be bf 19 19 41 c0 b5 5f 36 3f 43 6d be 3e
       -1.488844 -3.0171568 0.7123979 0.37192735
000050 7c d2 bc 3f 36 f8 01 bf 6d ec 51 bf 8c 14 2b 3f
       1.4751735 -0.50769365 -0.8200138 0.6682823
000060 b7 1f ca 3e 77 0c 15 c0 78 dc 21 c0 67 1d 85 bf
       0.39477322 -2.3288858 -2.5290813 -1.0399598
000070 f5 c0 13 3f bc fd 68 3f 67 0c 1b 3f 7f 74 e4 40
       0.57716304 0.9101217 0.605658 7.1392207
000080 6a e0 4b 3f e2 6e 86 c0 86 db fa 3f 74 5b 11 3f
       0.79639304 -4.2010355 1.9598243 0.5678017
000090 b6 37 4c c0 c0 a3 39 40 27 eb 54 40 34 a1 c6 3d
       -3.1909003 2.9006195 3.3268526 0.09698716
0000a0 1f 9f f6 40 bb 5d 73 c1 3a e5 2c 41 ea df ff 3e
       7.706924 -15.210383 10.8059635 0.4997552
0000b0 fb fa b3 3e 28 5a 08 3f 10 27 18 be 4b 53 31 3f
       0.3515242 0.5326257 -0.14858651 0.6926772
0000c0 11 ff c7 bf c2 1b 4e 40 50 21 77 3f 02 e6 4f 3f
       -1.5624715 3.2204442 0.96535206 0.8121034
0000d0 1d 15 66 3f 92 4c 9f 40 3d b2 34 40 23 c9 cf 3e
       0.89875966 4.978097 2.8233788 0.40583143
0000e0 22 5e b8 bf 72 36 2e 3f a4 79 37 3e 41 84 2f 40
       -1.4403727 0.68051827 0.17917496 2.7424471
0000f0 0f 82 6c 40 32 a6 0e bf e3 91 59 3f c8 11 93 3e
       3.6954381 -0.55722344 0.8498823 0.28724504

layer1.1.bn1.weight f4 [64]
000000 06 e7 e6 3f 38 81 d8 3f 3a 0c 01 40 14 b9 1c 40
       1.8039253 1.6914434 2.0163713 2.4487963
000010 e0 3c bd 3f df 40 28 40 58 00 7e 40 12 4e d9 3f
       1.4784203 2.6289594 3.968771 1.697695
000020 99 9c 02 40 f0 05 c1 3f b1 05 b4 3f 88 a2 c4 3f
       2.040808 1.5079937 1.4064237 1.5362101
000030 15 82 bc 3f 4b eb cd 3f 8c f0 ee 3f a5 3e 4a 40
       1.4727198 1.6087431 1.8667159 3.1600735
000040 07 6e b5 3f 1c 6e 47 40 ff 37 cc 3f 81 f7 57 40
       1.4174203 3.1160955 1.5954589 3.3744814
000050 d3 1d 0f 40 ed ed 80 40 f5 c5 2b 40 76 2f 12 40
       2.2361953 4.0290437 2.6839573 2.2841468
000060 35 5d 32 40 ea 69 14 40 df 6a f2 3f 1b 84 1a 40
       2.786939 2.3189645 1.8938864 2.414313
000070 ac e4 c5 3f 75 18 14 40 35 a1 f2 3f 04 1c 2d 40
       1.546041 2.3139927 1.8955446 2.704835
000080 37 e4 0f 40 f1 e1 fa 3f 66 4f b4 3f 70 36 26 40
       2.2483041 1.9600202 1.408673 2.5970726
000090 f7 4c eb 3f 13 aa ed 40 4a 35 c4 3f 03 72 e5 3f
       1.8382863 7.427011 1.5328763 1.7925419
0000a0 84 f9 cb 3f 25 dc b7 3f d4 fe 07 40 81 d0 f5 3f
       1.5935521 1.4364058 2.1249285 1.9204255
0000b0 e4 b8 e6 3f fb c7 0f 40 fc f2 06 40 c4 9f 59 40
       1.8025174 2.2465808 2.1085806 3.4003763
0000c0 02 33 d7 3f 26 07 b3 3f 64 4f 1c 40 49 fc f0 3f
       1.6812441 1.3986557 2.4423456 1.8826991
0000d0 ca d7 fd 3f d3 44 16 40 e9 d4 b5 3f a5 5a 42 40
       1.9831479 2.3479507 1.42056 3.0367825
0000e0 da c3 5a 40 99 e5 aa 3f 0f 9b cb 3f 19 5c 2b 40
       3.4182038 1.3351318 1.5906695 2.6774962
0000f0 2a de 01 40 11 94 bc 3f 64 a1 be 3f f2 40 39 40
       2.0291848 1.4732686 1.4893003 2.894589

layer1.1.bn1.bias f4 [64]
000000 f8 79 9b be 07 25 8a 3f ad af 9d c0 7a 20 51 bf
       -0.30366492 1.079255 -4.927695 -0.8169018
000010 90 eb e4 3f 0e a3 bf bf f9 f1 cc c0 7f 82 48 3f
       1.7884388 -1.4971635 -6.4045377 0.7832412
000020 94 c4 98 3d a5 a7 ac 3e e3 cc 2e 40 3b 35 de 3f
       0.07459369 0.33721653 2.7312553 1.7359995
000030 82 0d c3 3f e3 7c 02 40 4b e8 0b be aa e7 13 c0
       1.5238497 2.0388725 -0.13662831 -2.3110147
000040 df 7b 77 3f 62 ca c0 bf 4d 9f 49 3f 0f 9e 01 c0
       0.9667339 -1.5061762 0.787587 -2.0252721
000050 34 75 a7 be 3a 83 5a c0 9b 59 02 c0 58 15 6f bd
       -0.32706606 -3.4142594 -2.036719 -0.058369964
000060 c5 db f9 bf 72 8e 51 be 64 c1 40 3f 78 c4 74 bf
       -1.9520193 -0.20464495 0.7529509 -0.9561229
000070 38 b9 0f 3f 64 f6 1a be a1 3d 89 bf 30 0b 35 bf
       0.56141996 -0.15133053 -1.0721933 -0.70720196
000080 84 71 6c bd b8 c9 29 bf a3 9d 1b 40 fc 9c a5 be
       -0.057725444 -0.66323423 2.4314964 -0.32346332
000090 4f 60 7d be f6 2d 25 c1 f5 9c 9b 3f 67 7a c2 bc
       -0.2474377 -10.323721 1.2157274 -0.023740007
0000a0 9f 9a 4c 3f 07 1f a5 3f 0b 3b 77 3e c9 ff 26 3e
       0.79923433 1.2900094 0.24143617 0.16308512
0000b0 45 72 98 3f 70 31 49 be 66 f0 39 bf 43 34 24 c0
       1.1909872 -0.19647765 -0.72632444 -2.5656898
0000c0 91 fe c1 3f dc c4 51 3f b6 6f c2 be 71 74 64 be
       1.5155813 0.8194101 -0.37975854 -0.22310044
0000d0 b3 a9 4f be f3 00 39 bf 6c ef 33 40 75 b1 d7 bf
       -0.20279579 -0.72267073 2.8114882 -1.685103
0000e0 30 55 10 c0 b5 f4 c2 3e 38 dd 00 40 c3 99 c7 bf
       -2.2551994 0.38077322 2.0135021 -1.5593799
0000f0 cd 74 01 3d 3d eb 56 40 75 12 c0 3f bc 46 45 c0
       0.03160553 3.3581078 1.5005633 -3.0824423

layer1.1.bn2.weight f4 [64]
000000 ca 67 06 40 2f 55 dd 3f 45 e5 16 40 af e2 b2 3f
       2.1000848 1.7291621 2.3577435 1.3975428
000010 2b f7 b9 3f e0 f6 b3 3f f8 18 6d 40 e7 12 ee 3f
       1.4528555 1.4059715 3.704649 1.8599519
000020 ec 7d 13 40 ec 14 f9 3f 70 f1 0b 40 5d 42 f7 3f
       2.3045607 1.945951 2.1866112 1.9317127
000030 1f 63 a1 3f 29 ce ed 3f 47 6c d2 3f b3 c2 e6 3f
       1.2608374 1.857854 1.6439294 1.8028167
000040 4d 74 9f 3f 86 bb 02 40 98 4c c8 3f 69 88 09 40
       1.2457367 2.0426955 1.5648375 2.1489508
000050 40 30 cf 3f 7c 4e 06 40 e0 6a b7 3f fc 76 0b 40
       1.61866 2.0985403 1.4329491 2.1791372
000060 8c 18 ec 3f de 0d 3e 40 19 bf 01 40 92 0f 01 40
       1.8444991 2.9695964 2.0272887 2.0165753
000070 a3 d5 3d 40 49 c8 ce 3f e8 86 a0 3f c8 4e e5 3f
       2.9661644 1.6154872 1.254117 1.7914667
000080 a0 a0 0e 40 21 31 c7 3f 19 b4 b2 3f 92 6a 0e 40
       2.2285538 1.5561868 1.3961211 2.2252545
000090 8e 07 09 40 47 1e b7 3f 4f 23 08 40 b8 c4 af 3f
       2.141086 1.4306115 2.127155 1.3731909
0000a0 4e 35 fe 3f fd 0f e7 3f 57 ca bc 3f ac 2f 0a 40
       1.9860017 1.8051754 1.4749249 2.1591597
0000b0 da 62 bd 3f e8 68 4c 40 68 5b b2 3f b0 86 e8 3f
       1.4795792 3.193903 1.3934145 1.8166103
0000c0 11 58 01 40 b7 d7 d3 3f 24 c5 9e 3f cb 6c e7 3f
       2.0210001 1.6550206 1.2403913 1.8080076
0000d0 7a 5a 05 40 fc 7a f2 3f 89 da b1 3f 8d 5f 16 40
       2.0836473 1.8943782 1.3894817 2.349582
0000e0 ea ce 19 40 45 1c b6 3f d4 57 64 40 b9 86 01 40
       2.403254 1.4227377 3.5678606 2.0238478
0000f0 9c 53 02 40 b9 f0 06 40 cf 97 7b 40 f7 9c 81 40
       2.036353 2.1084425 3.9311407 4.0504107

layer1.1.bn2.bias f4 [64]
000000 8d 51 38 bf 18 5a 77 3f e0 29 c4 bf 25 cd 5c 40
       -0.71999437 0.9662185 -1.5325279 3.450021
000010 8f 40 76 40 47 bf 72 40 df 4f 80 c0 7b db 2b 3f
       3.8476903 3.7929246 -4.00975 0.67131776
000020 56 c1 0d bf 8c 98 8d 3f cf 93 f9 be 63 62 4a 3f
       -0.5537313 1.1062179 -0.48745582 0.79056376
000030 11 89 87 40 ad 1f c7 3e 64 dc de 3f 50 c8 13 40
       4.2354817 0.38891354 1.7411008 2.309101
000040 8d e2 4b 40 d3 63 81 bc 17 1c 6c 40 fc 61 2f be
       3.1857026 -0.01579467 3.6892145 -0.17127222
000050 e1 7d f3 3f 1b 83 54 be 55 18 60 40 3b 27 4d bf
       1.902279 -0.20753138 3.501485 -0.80137986
000060 8e 7f 21 bf 6e 43 e1 bf de 62 28 3f 00 cb 01 bf
       -0.6308526 -1.7598703 0.6577586 -0.5070038
000070 1e cd 0a c0 7e fc bc 3f 4d f5 68 40 3a 4f 7d 3f
       -2.1687694 1.4764555 3.639972 0.98949015
000080 d0 a4 0c bf 25 eb 33 40 e6 0c 9d 40 b8 5b 4c bf
       -0.54938984 2.811227 4.9078245 -0.7982745
000090 60 8f 1f 3f 1a 58 68 40 dd fa c3 bc af 88 61 40
       0.6232815 3.6303773 -0.023923332 3.5239675
0000a0 70 65 01 bf 79 ee 65 3f 3d 21 a1 3f 42 a1 44 be
       -0.50545406 0.89817005 1.2588269 -0.1920214
0000b0 75 73 33 40 29 69 38 c0 2c 86 90 40 a9 c4 0e 3f
       2.803922 -2.8814185 4.5163784 0.5576883
0000c0 d1 ff 3a 3f 75 66 7a 40 8c 59 09 40 c2 69 5a 3f
       0.73046595 3.9125035 2.1460905 0.85317624
0000d0 83 46 e9 3c 3d e1 d3 3e 37 64 0b 40 1a 47 ec bf
       0.028476005 0.4138278 2.1779916 -1.8459198
0000e0 f4 14 99 bf 37 d9 39 40 89 59 91 c0 56 f6 03 3f
       -1.1959519 2.9038827 -4.5421796 0.51547754
0000f0 5b 49 e8 3c 0e a3 cd bd 05 e4 99 c0 ae a1 a1 c0
       0.028355291 -0.10040866 -4.8090844 -5.0509863

layer1.2.bn1.weight f4 [64]
000000 0d be be 3f 53 a8 02 40 75 09 de 3f 06 25 de 3f
       1.4901749 2.0415237 1.7346636 1.7355049
000010 ef bf e3 3f 68 0f b3 3f a3 9d ff 3f 0e 2d f5 3f
       1.7792948 1.3989077 1.9969982 1.9154375
000020 80 09 e7 3f a6 71 cb 3f bb 40 f6 3f 38 16 af 3f
       1.8049774 1.5894058 1.9238504 1.3678656
000030 07 cb a8 3f 0c 07 e6 3f 63 9d 39 40 37 c7 c8 3f
       1.3186959 1.79709 2.9002311 1.5685796
000040 44 8e df 3f 0f b3 ee 3f a2 54 45 40 3b b3 a9 3f
       1.7465291 1.8648394 3.0832906 1.3257822
000050 82 e8 b2 3f 39 f3 1b 40 15 b7 fb 3f d3 c3 db 3f
       1.3977206 2.4367201 1.9665247 1.7169136
000060 89 20 0d 40 bb 7d dc 3f 8f 87 55 40 cf f2 c8 3f
       2.2051108 1.722587 3.3363988 1.5699099
000070 c4 75 01 40 62 d3 03 40 e5 37 e9 3f 10 7a 64 40
       2.0228128 2.0597768 1.8220183 3.56995
000080 d2 d9 b6 3f 1b 52 bc 3f 26 6b a5 3f 44 28 bf 3f
       1.4285223 1.4712557 1.2923324 1.4934163
000090 64 51 c8 3f dd 66 1f 40 15 d0 b2 3f 01 4d ef 3f
       1.5649838 2.4906533 1.3969752 1.8695375
0000a0 f2 5b 0c 40 0c b5 fa 3f 00 58 e3 3f d8 67 03 40
       2.193112 1.9586501 1.776123 2.0532131
0000b0 08 3e 9b 3f c2 2a ea 3f a9 c8 d1 3f 6f 5f fd 3f
       1.2128305 1.8294299 1.6389362 1.9794749
0000c0 93 87 0e 40 4b ab 07 40 56 25 e4 3f da a7 c8 3f
       2.2270248 2.11983 1.7823894 1.5676224
0000d0 26 66 c6 3f 3f 59 0a 40 5b 83 95 40 b4 d2 4d 40
       1.5499923 2.1616971 4.6722846 3.2159853
0000e0 18 eb 03 40 96 be 00 40 d0 bb 0a 40 da 05 0a 40
       2.061224 2.0116324 2.1677132 2.1566072
0000f0 e8 6a 09 40 35 09 eb 3f b8 26 f1 3f a8 d6 f5 3f
       2.14715 1.8362185 1.8839941 1.9206133

layer1.2.bn1.bias f4 [64]
000000 41 7e 28 3f f3 19 83 be 1b 87 cd 3e 64 a2 48 3f
       0.6581765 -0.25605735 0.4014214 0.7837279
000010 3b 99 3f 3f 04 b5 ac 3f bb ab 4a bd 68 fb 46 bf
       0.74843186 1.3492742 -0.04948018 -0.77727365
000020 6c 5f 29 3f b6 e9 91 3f a6 07 2c bd 5e 1a 95 3f
       0.6616123 1.1399448 -0.04199948 1.1648672
000030 e8 c0 00 40 e6 c5 bc 3e 94 41 65 c0 b3 d7 40 3f
       2.011774 0.36869735 -3.5821276 0.7532913
000040 cf 63 bf bc 7e dc 7e 3e af 7d 43 c0 0e 9f 97 3f
       -0.023363022 0.24888799 -3.054546 1.1845415
000050 f9 dc c2 3f 4d e4 99 bf 86 da 77 be 54 07 cb 3e
       1.5223686 -1.2022797 -0.24204454 0.39654028
000060 66 94 f3 bf 04 4d 27 3f 25 72 02 c0 0b ec 60 bd
       -1.9029663 0.6535189 -2.0382168 -0.054912608
000070 e9 75 fb 3e 73 81 d2 be 1b 14 92 3f ea 98 04 c1
       0.49113396 -0.41114387 1.1412386 -8.287333
000080 55 55 06 40 60 6a 93 3f ed 98 74 40 ef f3 7b 3f
       2.0989583 1.1516838 3.8218338 0.9841909
000090 66 d1 06 3f 12 5f b2 bf c2 38 bf 3f ac be 44 3f
       0.52663267 -1.3935263 1.4939196 0.7685344
0000a0 8b 53 c0 be 45 16 3f bf bf 58 8c be 4b fc 86 bf
       -0.37563738 -0.74643356 -0.27411458 -1.0545744
0000b0 b3 83 14 40 8d 46 16 3f 13 5c 2b 3f 16 c9 6b be
       2.3205383 0.587014 0.6693737 -0.23025927
0000c0 07 d8 34 bf ae 91 29 bf 7b ff d8 3e 5c 5e 35 3f
       -0.7064213 -0.66237915 0.42382416 0.70847106
0000d0 3f ef 3b 3f c0 cc cb bf 9d a2 14 c1 95 09 5b c0
       0.73411936 -1.592186 -9.2897005 -3.4224598
0000e0 a4 ec 74 bf 16 b1 3b bf 52 a1 7d be 97 10 83 bf
       -0.95673585 -0.73317087 -0.2476857 -1.0239438
0000f0 31 cf a4 bf b0 3b 45 bc 9e 9f 21 3f a4 fb 21 3d
       -1.287573 -0.012038156 0.6313418 0.039546624

layer1.2.bn2.weight f4 [64]
000000 cc 0f ce 3f 63 a7 c7 3f 7f 26 ee 3f e0 cc e6 3f
       1.6098571 1.5597957 1.8605498 1.8031273
000010 a0 a8 9e 3f f8 dd c0 3f ed 00 85 40 77 66 9c 3f
       1.239521 1.506774 4.156363 1.221877
000020 5a ed 86 3f 96 4f 9c 3f 68 0a 83 3f 85 f9 2e 40
       1.0541184 1.2211788 1.0237551 2.7339795
000030 35 47 8e 3f 07 0c c3 3f c7 fb cb 3f 3f 48 fb 3f
       1.1115481 1.5238045 1.5936211 1.9631423
000040 ee 01 94 3f 05 63 eb 3f 38 d5 c9 3f 92 0e df 3f
       1.1563089 1.8389593 1.5768194 1.7426322
000050 6c 2d e8 3f 93 26 9b 3f b6 4c 98 3f e8 9d fa 3f
       1.8138862 1.2121147 1.189841 1.9579439
000060 f4 1c ef 3f ef 43 f5 3f 19 4b d1 3f 34 70 ad 3f
       1.8680711 1.9161357 1.6351043 1.3549867
000070 6a 5d fc 3f dd 45 bf 3f 3c f7 f1 3f ec 74 b7 3f
       1.9716008 1.4943196 1.8903575 1.4332557
000080 61 ef cb 3f b8 ed 6d 40 74 00 fb 3f 1e 32 f3 3f
       1.5932428 3.7176342 1.9609513 1.899967
000090 6c 9d c9 3f 59 35 e7 3f b7 66 c1 3f e7 4a fa 3f
       1.5751166 1.8063155 1.5109471 1.9554108
0000a0 18 80 e9 3f 67 3b 99 3f 42 5d fe 3f ad db d1 3f
       1.8242216 1.1971253 1.987221 1.6395165
0000b0 49 cd e9 3f df 2b c3 3f c5 7c ed 3f a5 70 a4 3f
       1.8265773 1.5247763 1.8553702 1.2846876
0000c0 8e e6 98 3f d3 3a cd 3f ab c0 94 3f f4 4f dd 3f
       1.194536 1.6033577 1.1621298 1.7290025
0000d0 41 42 e9 3f ff 7f 93 3f 15 19 01 40 fc c0 e7 3f
       1.8223344 1.1523436 2.017156 1.8105769
0000e0 bb 16 9f 3f 6a d2 df 3f fd eb 89 3f 1a 5b 02 40
       1.2428812 1.7486088 1.0775143 2.0368104
0000f0 27 d5 c7 3f 97 ab ad 3f d3 84 fb 3f f5 e8 9a 3f
       1.5611924 1.356799 1.964991 1.2102343

layer1.2.bn2.bias f4 [64]
000000 0c 34 81 be 77 3f a3 bd fd ef f7 be 19 06 0a bf
       -0.2523502 -0.07971089 -0.48425284 -0.53915554
000010 b5 fd 9d 40 77 0b ca 3e f3 1c b1 c0 ed 8d 20 40
       4.93722 0.39461872 -5.534784 2.5086625
000020 79 3c 38 40 c4 03 91 3f f2 df 52 40 77 e4 62 c1
       2.878691 1.1329274 3.2949185 -14.180778
000030 d2 11 94 40 2d 99 89 3e fe 69 28 bf 0d 4b 1e bf
       4.6271753 0.26874676 -0.6578673 -0.6183327
000040 93 24 78 40 3c 70 38 bf 04 59 f0 bd bb 67 d0 be
       3.8772323 -0.72046256 -0.117357284 -0.4070414
000050 a3 ea 04 bf 04 08 2e 40 b3 aa 5f 3f d2 5c 21 bf
       -0.5192053 2.7192392 0.8736984 -0.6303226
000060 a6 fa 3c bf 8f 9a 10 bf f8 d7 54 be 8a 1a 71 3f
       -0.7381996 -0.5648584 -0.2078551 0.9418112
000070 d5 c0 5a bf 7b d2 06 3f 78 ba f4 be c8 70 2e 3f
       -0.8545049 0.5266492 -0.47798514 0.6814084
000080 67 1e 3a bf 08 74 82 c0 62 40 2d bf 4e f2 36 bf
       -0.7270264 -4.076664 -0.67676365 -0.7146348
000090 83 a0 39 3d 19 86 f5 be a5 90 93 3e 6f 80 4b bf
       0.04531909 -0.4795387 0.28821293 -0.7949285
0000a0 1a 83 02 bf 2a 79 47 40 ed dd 61 bf 6c 0f 99 3e
       -0.50981295 3.1167703 -0.88229257 0.29894578
0000b0 c7 64 2a be 6e 9b 0a 3c 99 86 db be 70 32 8f 40
       -0.16640006 0.008459909 -0.42876127 4.474907
0000c0 65 b0 41 40 17 6f 77 be 96 83 8c 40 71 b8 00 bf
       3.0263913 -0.24163471 4.3910627 -0.50281435
0000d0 11 3c 5e bf 17 0f 66 3f d8 59 2d bf b9 20 c8 be
       -0.86810404 0.89866775 -0.67715216 -0.39087465
0000e0 67 74 4d 40 30 db e8 be 8b 1b 85 40 75 48 33 bf
       3.2102296 -0.45479727 4.159612 -0.70032436
0000f0 1e a5 99 bd b8 0b 1c 3f 8a 6b 2f bf 06 cb 8f 40
       -0.07502197 0.6095538 -0.68523467 4.493533

fc.1.bias f4 [3]
000000 a6 6c b5 3c 65 52 47 bc b4 a9 03 3c
       0.022146534 -0.0121656405 0.008036066

bn1.running_mean f4 [64]
000000 24 26 a0 bb ec 25 a1 3c f3 2c c7 bf 26 06 1a 3c
       -0.004887359 0.019671403 -1.5560592 0.00940088
000010 51 a4 2e be dd a2 03 3d 60 2a a2 bc 11 e4 af 3c
       -0.17054869 0.03213774 -0.019795597 0.021471055
000020 1a ce 6c 3d 0c a4 81 bb 94 7e fd 3c 32 74 a8 be
       0.05781374 -0.0039563235 0.030944146 -0.3290115
000030 27 4d 44 bf 6a d4 e0 bc b6 eb 12 3c 65 cb 45 bc
       -0.76680225 -0.027445037 0.008967331 -0.012072419
000040 78 02 2d bb 54 3b 07 3f 2a 6e 93 bd 57 d0 f5 be
       -0.0026399177 0.528249 -0.071987465 -0.48010513
000050 de cc 56 3b e8 fe 0c 3d 45 ef 73 3d ef 0d 92 3d
       0.003277592 0.034422785 0.059554357 0.07131564
000060 6c c1 08 bf 50 a3 a9 3c 16 6f a7 3f 81 fe 6b ba
       -0.5342014 0.020707756 1.3080776 -0.00090024626
000070 8b fd 96 3c 45 27 2b 3f 24 36 de 3d 9a 46 c2 bc
       0.018431446 0.66856796 0.1085017 -0.023715306
000080 53 95 c6 3e 84 de f5 3c 39 ba d8 3d 2b bd 29 3d
       0.387858 0.03001333 0.10582394 0.04144017
000090 bd 83 e4 bb f6 a0 31 bc 5b 21 eb 3c 90 98 a6 be
       -0.0069737122 -0.010841599 0.028702429 -0.3253827
0000a0 76 9b 65 3d 21 e7 45 3e f7 c8 af 3c 8c eb 0b 3d
       0.056056462 0.1932645 0.021458132 0.034160182
0000b0 61 dc 5a 3c 3a 52 6c 3c e7 6a 61 3c 7c 3d f8 3b
       0.0133582065 0.014423901 0.013758398 0.007575689
0000c0 5f 39 af 3c 15 5f 42 3d b0 10 81 bb 2c fb f2 bc
       0.021389661 0.04745396 -0.003938757 -0.029660784
0000d0 3a 19 7f 3f 23 f0 82 3c 7b 94 b6 3c 2c dc 68 ba
       0.9964787 0.015983647 0.022287598 -0.0008882906
0000e0 6d e9 1d bc 48 42 df be 6e 25 57 3e dc 84 ca 3c
       -0.009638173 -0.43605256 0.21010372 0.024721555
0000f0 a2 7c 58 3d 12 64 34 3d 98 90 91 3c 8f c0 82 3c
       0.052853234 0.044040747 0.017769143 0.01596096

bn1.running_var f4 [64]
000000 a8 1c 8b 3e 13 e9 89 40 d7 15 db 40 74 cc c5 40
       0.271703 4.3097014 6.846416 6.1812077
000010 d1 89 53 40 8c e9 92 3f c6 09 58 3f 08 01 44 40
       3.3052866 1.1477523 0.84389913 3.062563
000020 20 2c bb 41 5c f5 d2 3f 13 f5 c8 3f fb eb e2 3f
       23.396545 1.6481128 1.5699791 1.7728266
000030 05 32 bb 41 2d 14 b5 41 b6 c8 af 3f eb 40 dc 40
       23.399424 22.634851 1.3733127 6.8829246
000040 a0 a2 d7 3f 21 24 a3 40 01 e9 50 3f 5f b5 a9 42
       1.6846504 5.0981603 0.81605536 84.85424
000050 ab ba c9 40 c0 44 a3 3f 95 66 f8 40 5f 94 90 3f
       6.3040366 1.2755356 7.762522 1.1295279
000060 96 29 04 41 74 19 80 40 3d ab 9f 40 4f 3a 8a 40
       8.260153 4.003107 4.989653 4.3196177
000070 c0 38 5b 3e 73 03 23 43 c1 7c ef 3e 81 d6 e3 3f
       0.21408367 163.01347 0.46774867 1.7799836
000080 da cd ad 40 87 c9 ca 3f 84 f1 62 40 32 98 67 40
       5.4313784 1.5842751 3.545991 3.6186643
000090 71 ab c4 3f a3 67 95 3f 7b f3 ad 3f 0f f2 7c 42
       1.536482 1.1672252 1.3589929 63.236385
0000a0 06 8e 8b 3f b9 45 1a 41 5c 84 ab 3f 2e f6 9c 3f
       1.0902717 9.642022 1.3399768 1.2262628
0000b0 39 98 b7 3f af c1 a1 3f cb b3 d2 3f cb 38 c4 3f
       1.434333 1.2637233 1.6461118 1.5329832
0000c0 77 6c 97 3e 42 88 df 3f 3d b3 6c 3e 44 60 35 3d
       0.2957494 1.7463458 0.23115249 0.04428126
0000d0 46 60 22 41 bf 5b 40 3f 39 59 6d 41 84 17 77 3f
       10.148504 0.75139993 14.834283 0.96520257
0000e0 7f 02 61 40 40 83 21 41 40 af 22 41 6c cd 32 41
       3.5157773 10.094543 10.167786 11.175152
0000f0 48 52 8e 3f cf 3f c5 3f a0 a2 43 3d b4 0c c1 3f
       1.111886 1.5410098 0.047762513 1.5082002

layer1.0.bn1.running_mean f4 [64]
000000 ef 6c 1e c1 1f 06 76 c0 87 42 28 41 f0 15 23 c1
       -9.901595 -3.8441236 10.516242 -10.192856
000010 6d 51 8f 40 4a f7 db bf f6 e7 15 c1 73 4f a8 c0
       4.4786897 -1.7184842 -9.369131 -5.2596984
000020 d7 47 b2 c0 f9 64 24 41 f7 5f de c1 3a 86 80 c0
       -5.5712695 10.274652 -27.796858 -4.016385
000030 04 15 02 c1 c8 16 61 c1 aa 07 7c c0 e8 4b 1a c0
       -8.130131 -14.068062 -3.9379678 -2.410883
000040 03 c6 3e c1 ba ca 08 c1 3c c1 66 c1 8b 46 8a 3f
       -11.923343 -8.549494 -14.422176 1.0802778
000050 02 e5 19 c0 be e0 c7 c0 0d 70 bc c0 73 a2 b1 c0
       -2.4046025 -6.2461843 -5.888678 -5.55108
000060 55 10 81 c0 78 79 97 40 5f 12 4c c1 8e e5 d9 3f
       -4.0332437 4.7335777 -12.754485 1.702318
000070 df fb 2b c1 53 f3 85 41 6a ff 8b c1 bf 9c 50 c1
       -10.748992 16.74381 -17.499714 -13.038268
000080 66 c1 0a c0 67 cb 91 41 ef 95 5d c1 23 3d dc c0
       -2.168054 18.224318 -13.849105 -6.882463
000090 71 cc 38 c1 c5 1f 0b c1 c5 3e c6 c0 90 0a af 40
       -11.549912 -8.695256 -6.1951623 5.4700394
0000a0 31 68 a3 c0 ad 8f 10 41 fc 03 18 c0 73 d8 d5 c0
       -5.1064687 9.035077 -2.3752432 -6.682672
0000b0 13 92 fa c0 84 e9 48 c0 28 7e e8 c0 ef 49 8f c0
       -7.8303313 -3.1392527 -7.2654 -4.477775
0000c0 63 20 e6 c1 34 82 d7 c1 23 14 2f c1 ed 74 ee c0
       -28.765814 -26.938576 -10.942416 -7.451773
0000d0 97 76 4e c1 ed 8e 9b c0 f2 32 a0 c1 19 9d 49 41
       -12.903953 -4.861197 -20.024876 12.600854
0000e0 f6 2d d4 c0 5e 61 bb bf f9 01 d0 c0 37 06 08 3f
       -6.6306105 -1.4639089 -6.500241 0.53134483
0000f0 87 fd 31 42 53 bd ee c1 82 5e b5 41 4a 2c 48 c1
       44.497585 -29.842443 22.671146 -12.510813

layer1.0.bn1.running_var f4 [64]
000000 d8 60 e1 41 8c 3a cb 41 da e9 18 41 e9 b1 02 42
       28.172287 25.403587 9.557093 32.67374
000010 3c 91 64 40 cf a9 18 40 cb f9 af 41 08 c6 63 41
       3.5713644 2.3853643 21.99697 14.235847
000020 f1 76 2c 41 8d d2 04 41 b2 1c 61 41 8e db 12 41
       10.779038 8.301404 14.069506 9.178602
000030 48 d8 86 40 28 12 26 42 93 14 b8 40 ca dc 58 41
       4.2139015 41.51773 5.7525115 13.553904
000040 78 15 e7 41 20 e9 d6 41 6f 72 d7 41 50 b9 fb 41
       28.885483 26.86383 26.930876 31.465485
000050 54 68 40 40 69 b6 dc 41 d8 a4 16 40 7e c2 a8 41
       3.0063677 27.589067 2.3538113 21.094967
000060 e0 2e 99 40 8b 87 04 42 00 e0 ac 41 1c b8 7c 41
       4.786972 33.132366 21.609375 15.794949
000070 b8 1d 2f 42 77 3f 9b 42 57 e4 f0 43 c7 36 c0 41
       43.779022 77.623955 481.7839 24.026747
000080 70 25 07 42 ad 24 87 42 34 26 0a 42 c4 11 05 42
       33.78656 67.57163 34.537308 33.26735
000090 63 99 1b 42 bd ad a1 41 a3 f0 97 40 19 6b 23 42
       38.89979 20.209833 4.7481246 40.854588
0000a0 58 2f f7 40 76 29 9c 40 60 89 af 40 96 3b 5d 42
       7.7245293 4.880061 5.4855194 55.30819
0000b0 4d df 09 41 be bb 1c 40 51 e7 cb 41 6c 19 a7 41
       8.617017 2.4489589 25.487947 20.887413
0000c0 57 89 9f 43 5f 2c 0d 42 74 f5 a4 41 b6 c9 51 40
       319.07297 35.29333 20.61985 3.2779365
0000d0 dc f4 89 42 f9 3d 1b 41 d2 8d 56 41 5e 31 a2 42
       68.97824 9.70263 13.409624 81.09642
0000e0 b8 bf 53 40 28 33 c9 41 f0 0a 30 41 24 9d 2a 41
       3.3085766 25.149979 11.00267 10.663364
0000f0 b8 0b 14 43 4f a6 87 41 2a db c9 41 d1 88 29 42
       148.04578 16.956205 25.232014 42.38361

layer1.0.bn2.running_mean f4 [64]
000000 37 75 aa 40 04 72 23 40 af c1 27 bf b5 99 78 40
       5.3268085 2.553834 -0.6552991 3.8843815
000010 5f 78 d5 3f 60 f8 0c 40 9f e2 53 40 13 17 b2 3f
       1.6677359 2.2026596 3.3107069 1.3913292
000020 b3 06 2f 40 b4 d0 27 be d5 cc a8 c0 d1 d4 fc 3f
       2.734784 -0.16388208 -5.275004 1.9752446
000030 56 40 19 3f 2a c5 10 c1 8f 4c 8f 3f 99 72 cd bf
       0.59863794 -9.048136 1.1195239 -1.6050597
000040 26 a7 59 c0 63 23 cd c1 f9 28 f7 40 1a d7 42 40
       -3.400827 -25.642279 7.7237515 3.0443788
000050 6f 9f ae 40 96 4b 52 40 33 6c ce be 19 69 0c 40
       5.456962 3.2858634 -0.40316924 2.1939147
000060 e7 35 d1 40 75 f1 9f 3f 94 ec 45 40 5f e4 29 40
       6.53783 1.2495562 3.0925646 2.6545637
000070 ba 22 f7 40 9f e2 2e 3f 8d 2f 9c 40 b7 90 cb bf
       7.722989 0.68314546 4.8808045 -1.5903538
000080 83 90 0a 40 7d c1 d2 3e ad 86 c7 3f 82 3d e4 40
       2.1650703 0.41163245 1.5587975 7.1325083
000090 ce 84 1e 3f ae 95 82 40 cf b7 3a c0 d1 e2 35 40
       0.61921394 4.0807714 -2.9174688 2.8419688
0000a0 e6 98 df 3d d8 5a 3e c1 5b ee 05 c1 d8 f7 82 40
       0.10917835 -11.897179 -8.370692 4.0927544
0000b0 13 06 d8 bf c2 44 ce 40 51 fc 01 c0 48 60 08 41
       -1.6876854 6.4458933 -2.0310252 8.523506
0000c0 12 02 3a 3f a1 8c a6 3c 52 21 b6 bf c1 26 a0 40
       0.7265941 0.020330729 -1.4228919 5.0047307
0000d0 94 e7 0b bf f8 5b 54 bf 77 4a 7e 40 c5 41 f5 40
       -0.54650235 -0.82952833 3.973295 7.6642785
0000e0 c1 a0 81 c0 2c 8c 00 41 04 01 f4 40 d0 9a f8 c0
       -4.0508733 8.034222 7.625124 -7.768898
0000f0 df eb 3b 3f 83 7b 01 40 10 44 85 40 93 c4 9f 40
       0.73406786 2.0231636 4.1645584 4.992746

layer1.0.bn2.running_var f4 [64]
000000 73 52 fe 40 92 1b e0 40 41 ec a1 42 51 fd 65 42
       7.9475646 7.0033655 80.96143 57.49738
000010 1e 50 62 40 e4 ae 57 40 cc 0d f2 40 b8 fd d2 40
       3.53614 3.3700495 7.564184 6.5934715
000020 ec 2d 7a 43 fb 71 1c 43 50 31 be 40 ad d4 39 40
       250.17938 156.44524 5.9435196 2.9036057
000030 86 dc 34 40 cf 24 44 42 a0 7a 9c 40 24 9f 47 41
       2.8259597 49.035946 4.889969 12.476353
000040 6f 2f 11 41 b1 0f 38 41 0c cf d7 40 b6 7b 90 40
       9.07408 11.503831 6.7440243 4.5151014
000050 aa ed 24 40 b7 74 9a 40 49 b1 34 40 33 ea 47 41
       2.5770059 4.8267474 2.8233206 12.494678
000060 b4 3c 70 42 c8 d4 e8 3f 35 ad 03 41 c9 5b 6a 40
       60.05928 1.8189936 8.229787 3.6618521
000070 3b 70 c9 41 18 6a e0 40 61 d3 21 42 c3 c0 ca 41
       25.1798 7.012951 40.456425 25.344122
000080 7d 5b b4 40 8e ea e4 40 55 3a f2 3f 7c 37 fd 41
       5.636168 7.153632 1.8924052 31.652092
000090 fb ed d2 40 79 5e ee 40 e0 92 17 41 72 3a b3 40
       6.5915504 7.4490323 9.473358 5.6008844
0000a0 b9 26 f1 41 e8 7f 9c 41 0e 47 a4 42 93 2e 3b 41
       30.143908 19.562454 82.13878 11.698871
0000b0 87 8f 44 41 fb 6c 07 41 74 f0 58 41 45 14 fe 40
       12.285041 8.464107 13.558704 7.9399743
0000c0 c9 39 a9 40 0f eb a5 40 fb d9 c1 40 38 97 41 41
       5.288304 5.1849437 6.057859 12.099419
0000d0 a6 86 5f 40 e2 8e af 41 1e a0 15 41 e7 d8 1a 42
       3.4925933 21.944767 9.351591 38.71182
0000e0 f0 6e 5a 40 4b 2b dc 41 56 7d 2d 42 22 ad 5f 41
       3.413021 27.52114 43.3724 13.979769
0000f0 cb 5e aa 40 cc 9e 99 40 cd e0 6c 41 a0 1d f6 40
       5.3240714 4.8006344 14.804883 7.6911163

layer1.1.bn1.running_mean f4 [64]
000000 ca 30 5c 3f ee 6b 41 bf 08 68 2c 99 4a 0a f2 3f
       0.86011946 -0.7555531 -8.9132005e-24 1.890939
000010 b9 03 4e bf f6 85 7c 3f 7b fa 80 3f a7 cf df 3e
       -0.8047443 0.9864191 1.007644 0.43713114
000020 f0 6d e6 3e 3f 1d 46 3f fc fc a0 3e c9 6d c8 be
       0.4500575 0.77388376 0.31443012 -0.3914626
000030 95 c8 d5 3f 0a 65 b9 c0 39 12 0a 40 b3 68 40 40
       1.6701838 -5.793584 2.1573622 3.0063903
000040 04 d9 2e 3f 7f 35 14 c0 40 a2 d6 be f7 57 50 bf
       0.6829989 -2.3157651 -0.41920662 -0.81384224
000050 44 00 a6 3f d6 e7 3e c0 2c 53 e6 bf 95 e6 45 bf
       1.2968831 -2.9829001 -1.7994132 -0.77304965
000060 d4 d6 36 bf 44 1c 30 3f 8d ac 86 bf 5b 16 62 3e
       -0.7142155 0.6879313 -1.0521408 0.2207884
000070 b7 9a d7 be bf 90 46 bf b4 90 d4 bf 9b 82 2a bf
       -0.42110226 -0.77564615 -1.660666 -0.6660554
000080 82 b8 01 be c1 0c bc bf 12 c5 e6 3f c7 87 64 bf
       -0.1266804 -1.4691392 1.8028891 -0.8926968
000090 1f 8a 0d bf 9a 92 d0 c0 8e 40 5c bf 47 54 ce be
       -0.5528888 -6.5178957 -0.86036 -0.40298674
0000a0 57 81 19 3f d8 b1 05 bf bf 73 6f be d0 3f 5d 40
       0.5996298 -0.52224493 -0.23383997 3.4570198
0000b0 1c 8c 4d 3e f0 8f d8 3e 6f 13 94 bf 74 01 8a bf
       0.20072979 0.42297316 -1.1568431 -1.0781693
0000c0 a7 d2 89 bf 20 57 2c 3f e7 29 a2 3f 8d ca ec be
       -1.0767411 0.6732044 1.2669038 -0.46248284
0000d0 9d 74 e6 bf bf f0 5a 3f 4a a9 48 c0 04 6a a6 3f
       -1.8004338 0.855236 -3.1353326 1.3001103
0000e0 ff 73 7c 3f d0 e8 19 c0 4e 6b d7 bf ae 18 da be
       0.98614496 -2.4048347 -1.6829622 -0.42596954
0000f0 e3 4c 6d bf 6a df d2 3f 2d 40 40 3e 2b fb 1a be
       -0.92695445 1.647443 0.18774481 -0.15134875

layer1.1.bn1.running_var f4 [64]
000000 1d d5 05 40 1a 52 e4 40 63 90 30 19 09 8b bf 40
       2.0911324 7.135022 9.1281454e-24 5.985722
000010 49 bf 3c 40 3c 55 04 40 42 74 c4 3f 74 73 e9 40
       2.9491751 2.0677023 1.5347979 7.2953434
000020 1c 79 bf 40 30 77 06 40 5a a4 d4 3f ea 34 67 40
       5.983534 2.1010246 1.6612656 3.6126046
000030 87 84 10 40 32 33 21 40 a9 ed 63 40 bc 63 44 40
       2.2580888 2.5187497 3.5613806 3.0685873
000040 22 ac 25 40 42 6c c5 40 be f2 c5 40 76 a3 d7 40
       2.5886312 6.169465 6.1858816 6.7387037
000050 cd 3f 9c 40 43 bd 25 40 2b 7c fd 3f d1 52 f6 40
       4.882788 2.5896766 1.9803518 7.6976094
000060 c1 52 49 40 19 0f 80 40 23 8b 16 40 da 3d 87 40
       3.145676 4.001843 2.3522422 4.2263002
000070 05 35 c4 3f e4 80 12 41 08 af f3 3f 7a 46 0b 41
       1.532868 9.156467 1.903779 8.704706
000080 3d fb fe 40 70 5b f3 3f 1f e0 ae 3f bd bf 1a 41
       7.9681687 1.901228 1.3662146 9.671811
000090 97 29 66 40 c2 a0 ac 3f 44 a9 ca 40 98 4d f5 3f
       3.5962884 1.3486559 6.3331623 1.9164305
0000a0 74 59 0e 40 f9 c6 cf 3f a1 a0 d3 40 fd 8b 88 40
       2.2242098 1.6232597 6.613358 4.2670884
0000b0 1f 90 18 40 08 85 10 41 37 dc f1 3f 11 ff 98 40
       2.3837965 9.032478 1.8895329 4.781136
0000c0 fe 11 f7 40 be 92 d8 3f 22 16 9c 40 9c 77 32 40
       7.7209463 1.6919782 4.8777018 2.7885504
0000d0 8e 84 24 40 4d 33 9e 40 73 c2 ae 40 11 cc b0 40
       2.5705905 4.9437623 5.4612365 5.5249104
0000e0 f6 33 c9 40 70 ff 1a 40 bf 32 df 40 37 aa 8b 40
       6.287593 2.4218407 6.9749446 4.364528
0000f0 57 79 9a 40 5d 78 8e 40 ae 8c eb 3f 2e e4 d6 3f
       4.827312 4.452193 1.8402307 1.6788385

layer1.1.bn2.running_mean f4 [64]
000000 43 22 71 bf 61 c7 fc 3d 6c d6 54 c0 fc 35 17 40
       -0.94192904 0.12342716 -3.3255873 2.36267
000010 10 f0 81 40 de 97 49 3f f2 d8 aa c0 f3 3f 0a 3f
       4.0605545 0.78747356 -5.3389826 0.5400383
000020 6c 6b 0e bf f9 6f 65 3f 18 88 9f bf 72 3e 49 3f
       -0.5563266 0.8962398 -1.2463408 0.7861091
000030 77 ef 94 3f 7b 1a 96 3e 2b 87 0f 3f 03 44 2c 40
       1.1635579 0.29317078 0.56065625 2.691651
000040 73 3a 22 3f 64 88 02 c0 03 0d 2b 40 5a cc 85 bf
       0.63370436 -2.0395746 2.6726692 -1.0452988
000050 74 27 55 40 09 54 a0 bf 3b b9 86 bf b6 3f a1 bf
       3.330533 -1.2525645 -1.0525278 -1.2597568
000060 3d 37 9a 3f a1 4a 85 c0 3a f0 d9 be 32 f5 ea bf
       1.2048107 -4.16536 -0.4256609 -1.8356078
000070 34 e8 01 bf 0d 72 58 3f d2 00 fd 3e 82 b0 e2 3e
       -0.5074494 0.8454903 0.49414688 0.4427529
000080 02 3d 52 bf c1 a8 f6 3e 05 f0 a4 bf fa 1b 59 c0
       -0.8212434 0.48175624 -1.2885748 -3.3923326
000090 b4 97 88 3f 9b 3c e1 be 7a e0 c3 be 8c c6 77 3f
       1.0671296 -0.4399155 -0.382572 0.96787333
0000a0 ef 08 35 bf 22 88 ad 3e f9 33 89 bf 1c 8c b7 bf
       -0.70716757 0.33892924 -1.0718986 -1.4339633
0000b0 eb 70 31 40 ac 1a 03 c0 92 d7 10 40 95 06 b5 3f
       2.772517 -2.048503 2.2631574 1.4142634
0000c0 52 bf 8f 3f b1 e1 17 40 3b f1 7c 3f 7f 45 ba bf
       1.1230261 2.37315 0.9880559 -1.4552459
0000d0 46 27 99 bf ac 3d 61 3e 5b 64 29 3f 3d 2b d2 c0
       -1.196511 0.21996182 0.66168755 -6.567778
0000e0 1e 24 0c c0 30 f7 34 bf e4 bf 9f c0 f4 4e c4 3e
       -2.1897044 -0.7068968 -4.992174 0.38341486
0000f0 bd 27 e4 bf 46 ff 75 bf 2f 72 9c c0 6d 8c 10 c0
       -1.7824627 -0.9609264 -4.8889384 -2.258571

layer1.1.bn2.running_var f4 [64]
000000 3d cc 56 40 65 94 35 41 57 6f 35 40 f6 0b c1 40
       3.3562157 11.348729 2.8349206 6.03271
000010 43 e6 ef 40 f7 3f ef 40 44 ba 96 40 57 51 3b 41
       7.496858 7.476558 4.7102375 11.707358
000020 76 97 8f 40 bb 8a 3f 41 7e 68 88 40 d4 87 4b 41
       4.487239 11.97137 4.2627554 12.720661
000030 de 2f 90 40 8f 02 2b 41 5b b9 ec 40 0d ae 3b 41
       4.505843 10.688125 7.3976264 11.729993
000040 de 2b a9 40 7d c2 0b 41 0c 35 03 41 32 e9 d0 40
       5.286605 8.7349825 8.200451 6.528466
000050 b6 04 fe 40 62 28 bc 40 4a 4e cc 40 4d ed 39 40
       7.938075 5.8799295 6.384557 2.9051087
000060 19 fe f0 40 81 6f 8a 40 56 d7 35 41 50 e9 8c 40
       7.531018 4.3261113 11.365072 4.4034805
000070 87 3c 46 40 6b 75 f3 40 ab 2d bc 40 37 47 33 41
       3.0974443 7.6080832 5.8805747 11.204886
000080 5a 22 bd 40 d1 9e f6 40 64 de d2 40 d1 d5 9e 40
       5.9104433 7.706887 6.5896473 4.9636006
000090 f5 2a 3b 41 9b 9f f3 40 e5 17 d3 40 64 67 b1 40
       11.697988 7.613233 6.596667 5.543871
0000a0 52 6f 98 40 46 98 2f 41 06 b8 e2 40 e9 29 01 41
       4.763589 10.974676 7.084964 8.072732
0000b0 42 7f f6 40 df 0a 71 40 e6 a9 ca 40 15 c1 2d 41
       7.7030344 3.7662885 6.3332396 10.859639
0000c0 f0 2c 38 41 28 82 23 41 89 3b a5 40 c4 be 01 41
       11.510971 10.219276 5.1635175 8.109074
0000d0 cb 9b f6 40 11 84 26 41 f2 78 e4 40 48 95 8d 40
       7.7065177 10.407243 7.139764 4.424473
0000e0 f0 03 a8 40 6a 27 06 41 62 cc a3 40 f1 de 4b 41
       5.2504807 8.384623 5.118699 12.741929
0000f0 db ec 0c 41 86 c3 24 41 9b 23 85 40 10 94 08 40
       8.807826 10.297735 4.1605964 2.134037

layer1.2.bn1.running_mean f4 [64]
000000 89 62 8d 3f ca 97 06 3f d5 fe a4 bf b8 37 82 bf
       1.1045696 0.5257536 -1.2890269 -1.0173254
000010 38 d5 3b c0 d3 41 2c 40 87 37 a9 be 17 31 0b c0
       -2.9348888 2.6915176 -0.33050177 -2.1748712
000020 b0 a9 f0 3f 2f f2 96 40 8e c1 8f bf d7 51 d9 3e
       1.8801785 4.7170634 -1.1230943 0.4244525
000030 41 30 03 c0 42 72 69 bf f3 1a 1c bf 01 35 af bb
       -2.0498202 -0.9118997 -0.6097862 -0.0053468947
000040 c9 63 02 3f 1f ce b2 3f 65 04 16 c0 3f ca 1e 3e
       0.5093351 1.3969153 -2.3440182 0.15506838
000050 54 fb d7 be 69 05 28 c0 fe a6 94 bf f3 3f 56 bf
       -0.42183936 -2.6253302 -1.1613462 -0.8369133
000060 fd 6c 70 bf 0e ba 88 bf c1 77 53 c0 8e ae 17 be
       -0.939163 -1.0681779 -3.3041842 -0.14812681
000070 3e df 05 c0 93 8a 54 c0 d6 0f 39 bf fc 58 06 3e
       -2.0917506 -3.320958 -0.7228979 0.13119882
000080 f2 85 87 bd da d1 dc 3f 3a 8e 0b 3f 22 80 aa 3f
       -0.06617345 1.7251542 0.54513896 1.3320353
000090 e7 27 4f 40 98 55 d7 bf 23 1e 0d 3f 6c 30 16 bd
       3.2368104 -1.6822996 0.5512411 -0.036667272
0000a0 5d d5 fb 3e fe 68 15 c0 79 15 da be 77 4c 38 bf
       0.4918622 -2.3345332 -0.42594507 -0.71991676
0000b0 82 b5 86 bf 10 08 09 3e bf 7b de 3f 96 19 cc 3e
       -1.0524142 0.13381982 1.7381514 0.3986327
0000c0 f5 a0 3f c0 1c c3 f3 bf e1 f2 91 3f 30 1e 18 c0
       -2.994199 -1.9043918 1.1402246 -2.3768425
0000d0 18 38 56 3f f2 a4 ec bf d0 78 cd bf cb 04 88 c0
       0.8367934 -1.8487837 -1.6052494 -4.250585
0000e0 d0 64 5f c0 33 71 a6 bf bd 7c fc bf a2 78 d6 3f
       -3.490528 -1.3003296 -1.9725567 1.6755564
0000f0 9b 5d 5b c0 f5 a1 4a 3f 81 b7 47 bf ba 9a ab bf
       -3.4275882 0.79153377 -0.7801438 -1.3406594

layer1.2.bn1.running_var f4 [64]
000000 0d bb 65 40 e5 c5 ce 40 50 c8 5f 40 48 4b 9c 40
       3.5895417 6.461657 3.496601 4.8841896
000010 b9 1c 64 40 25 ad 81 40 84 90 cd 40 16 72 61 40
       3.564253 4.052386 6.423891 3.5225883
000020 95 9c b5 40 20 c4 c8 40 f0 16 b5 40 37 9d 3b 40
       5.675364 6.273941 5.65905 2.9314706
000030 fc 19 49 40 a8 dd 9a 40 e5 a0 3a 40 c1 5f c3 40
       3.142211 4.8395576 2.9160702 6.1054387
000040 61 0b 5a 40 7e 84 9a 40 ca 89 51 40 48 5c 38 40
       3.4069445 4.8286734 3.274035 2.8806324
000050 6f 62 7a 40 12 b5 7d 40 1b bb ca 40 26 f8 88 40
       3.912258 3.9641767 6.33534 4.2802916
000060 e3 a0 29 40 a8 95 d8 40 aa e7 9d 40 b1 0b 5a 40
       2.6504447 6.7682686 4.9345293 3.4069636
000070 35 03 9d 40 00 f9 aa 40 68 ba ac 40 92 29 8b 3f
       4.9066415 5.3428955 5.3977547 1.0872061
000080 cc 4c 0a 41 d4 b9 8b 40 62 c8 c9 40 d6 9b b1 40
       8.643749 4.366434 6.305711 5.550273
000090 49 6a 88 40 59 16 5f 40 52 8c 94 40 f8 0b a8 40
       4.2629743 3.485739 4.642129 5.251461
0000a0 ae 12 cd 40 40 c7 3d 40 c8 33 a9 40 1f 19 47 40
       6.40853 2.9652863 5.287571 3.1109083
0000b0 a6 86 36 40 c1 44 99 40 88 d4 d6 40 6d fc ac 40
       2.8519683 4.789643 6.7134438 5.4058137
0000c0 73 25 95 40 ed 7c 7a 40 99 9c ab 40 b3 a5 60 40
       4.6608214 3.9138749 5.362866 3.5101135
0000d0 4e b8 d3 40 f1 f8 5a 40 b9 06 05 40 3f 2a 2a 40
       6.616248 3.4214442 2.0785353 2.6588285
0000e0 cd f9 70 40 b3 1f 53 40 34 dc 8e 40 69 34 2d 40
       3.7652466 3.2988098 4.4643803 2.7063239
0000f0 65 e0 76 40 44 b2 a7 40 57 0a 9f 40 23 e7 85 40
       3.857446 5.240511 4.970012 4.184465

layer1.2.bn2.running_mean f4 [64]
000000 cd 3f 91 3e 8f 1c b6 be 16 f0 d8 be 46 70 05 be
       0.2836899 -0.35568663 -0.4237067 -0.1303111
000010 9f 4b b3 bf d6 f1 e3 3f 73 8f 86 c0 d2 ae 37 3e
       -1.4007453 1.7808177 -4.205011 0.17937782
000020 7e 45 82 bf 08 ff 97 3f fb 8d bf bf 60 b2 bb bf
       -1.0177457 1.1874704 -1.4965204 -1.4663811
000030 e1 ae 01 40 7a e1 fd be b4 9f 2e bf a4 37 8c bf
       2.0262988 -0.49586087 -0.6821244 -1.095448
000040 1a dc cd c0 3c c1 a7 be 44 ce c0 bf 1e b4 fb 3e
       -6.433118 -0.32764614 -1.5062947 0.49160856
000050 e5 85 0f bf b9 e5 ee bf 4f 02 62 be e8 2a ba bf
       -0.5606368 -1.8663856 -0.22071193 -1.4544344
000060 33 5d 3e 3e 5b 83 4b 3d 3c 08 a0 bf 5e a1 01 bf
       0.1859024 0.049685817 -1.2502513 -0.5063685
000070 cc 20 a7 bf c0 ae cc bf ee c9 a5 bf 3d d3 60 c0
       -1.3056884 -1.599083 -1.2952249 -3.512893
000080 c7 ab af bd 62 50 66 c0 5c 78 b8 bf 72 dc 61 bf
       -0.08577686 -3.5986562 -1.4411731 -0.88227
000090 c8 a3 3f 3e c0 74 12 c0 98 35 d8 3f 99 3c 98 bf
       0.18714821 -2.2883759 1.6891356 -1.1893493
0000a0 9f 64 b9 bf e7 60 88 bf ea 13 8e bf 1a 17 0e 40
       -1.4483832 -1.0654572 -1.1099827 2.22016
0000b0 ed d4 37 bf 48 3d cc bf 10 d7 38 bf 51 45 1b 3f
       -0.71809274 -1.5956202 -0.7220316 0.60652643
0000c0 8e f1 d0 bf a2 10 12 bf e6 42 c5 3f dc ed cb be
       -1.6323717 -0.5705663 1.5411041 -0.3982991
0000d0 51 cb 10 c0 02 3b 4f bf 3e e0 94 bf 2e ca b4 bf
       -2.2624094 -0.80949414 -1.1630933 -1.41242
0000e0 6e cc ed 3f f6 8d 81 bf a5 a3 62 40 27 a1 02 bf
       1.8578012 -1.0121448 3.541238 -0.5102715
0000f0 64 28 93 be 88 60 92 bf 1f f2 a4 bf 41 7b f0 bf
       -0.28741753 -1.1435709 -1.288639 -1.8787614

layer1.2.bn2.running_var f4 [64]
000000 71 67 60 40 1f 39 b9 40 c5 5b e2 40 8a 05 af 40
       3.5063136 5.788223 7.0737023 5.469426
000010 2e 4b cc 40 01 7d cc 40 1e 0d 54 40 3f 46 1a 41
       6.384177 6.3902593 3.3133006 9.64215
000020 59 e9 ea 40 24 33 c6 40 c3 0c 50 40 e6 b3 0e 40
       7.340985 6.1937428 3.250779 2.2297301
000030 4b fe a4 40 0d 26 b9 40 b6 1b 72 40 f2 e7 99 40
       5.1560416 5.785895 3.7829413 4.8095636
000040 f4 e1 e6 40 b7 8c b0 40 8b 26 b7 40 48 96 d7 40
       7.215082 5.517177 5.723455 6.737095
000050 d5 d8 bc 40 19 88 ff 40 3d 0d aa 40 de 82 a2 40
       5.9014688 7.9853635 5.314116 5.078475
000060 32 5a cd 40 f3 30 cb 40 98 76 be 40 c0 98 df 40
       6.41726 6.3497252 5.951977 6.9873962
000070 8f a8 9d 40 b6 98 a8 40 42 be d5 40 4f b8 d1 40
       4.926826 5.2686415 6.679475 6.5537486
000080 f8 e8 8f 40 16 f9 a0 40 02 da e7 40 3b 2f a5 40
       4.4971886 5.030406 7.2453623 5.1620154
000090 c4 83 cb 40 a9 9c 95 40 aa 41 b6 40 fc ee 91 40
       6.3598347 4.6753736 5.6955156 4.560423
0000a0 37 0d a2 40 b5 39 bd 40 3d 4e 83 40 4f b6 e2 40
       5.064113 5.9132943 4.1033006 7.0847545
0000b0 bb 83 10 41 2d a2 ad 40 f5 ad e7 40 fe 89 da 40
       9.032161 5.426047 7.239985 6.8293447
0000c0 76 52 da 40 1e 2b af 40 0d 2b e1 40 90 ec 8e 40
       6.822566 5.4740133 7.036505 4.4663773
0000d0 a8 48 78 40 80 50 8d 40 f8 df ae 40 30 41 af 40
       3.8794346 4.4160767 5.46484 5.4767075
0000e0 46 d8 e9 40 ee 9e a2 40 d1 92 92 40 d8 fa c4 40
       7.3076506 5.0819006 4.580422 6.1556206
0000f0 f7 74 9f 40 bb 2f dd 40 1b e2 ad 40 a3 67 dc 40
       4.983028 6.9120765 5.433851 6.887651

val_5 f4 [64]
000000 00 00 00 00 00 00 00 00 00 00 00 00 00 00 00 00
       0.0 0.0 0.0 0.0
000010 00 00 00 00 00 00 00 00 00 00 00 00 00 00 00 00
       0.0 0.0 0.0 0.0
000020 00 00 00 00 00 00 00 00 00 00 00 00 00 00 00 00
       0.0 0.0 0.0 0.0
000030 00 00 00 00 00 00 00 00 00 00 00 00 00 00 00 00
       0.0 0.0 0.0 0.0
000040 00 00 00 00 00 00 00 00 00 00 00 00 00 00 00 00
       0.0 0.0 0.0 0.0
000050 00 00 00 00 00 00 00 00 00 00 00 00 00 00 00 00
       0.0 0.0 0.0 0.0
000060 00 00 00 00 00 00 00 00 00 00 00 00 00 00 00 00
       0.0 0.0 0.0 0.0
000070 00 00 00 00 00 00 00 00 00 00 00 00 00 00 00 00
       0.0 0.0 0.0 0.0
000080 00 00 00 00 00 00 00 00 00 00 00 00 00 00 00 00
       0.0 0.0 0.0 0.0
000090 00 00 00 00 00 00 00 00 00 00 00 00 00 00 00 00
       0.0 0.0 0.0 0.0
0000a0 00 00 00 00 00 00 00 00 00 00 00 00 00 00 00 00
       0.0 0.0 0.0 0.0
0000b0 00 00 00 00 00 00 00 00 00 00 00 00 00 00 00 00
       0.0 0.0 0.0 0.0
0000c0 00 00 00 00 00 00 00 00 00 00 00 00 00 00 00 00
       0.0 0.0 0.0 0.0
0000d0 00 00 00 00 00 00 00 00 00 00 00 00 00 00 00 00
       0.0 0.0 0.0 0.0
0000e0 00 00 00 00 00 00 00 00 00 00 00 00 00 00 00 00
       0.0 0.0 0.0 0.0
0000f0 00 00 00 00 00 00 00 00 00 00 00 00 00 00 00 00
       0.0 0.0 0.0 0.0
